…
Load dataset using decord: True
Data Aug = (DataAugmentationForVideoMAE,
  transform = Compose(
    <datasets.transforms.GroupMultiScaleCrop object at 0x7f62414147c0>
    <datasets.transforms.GroupRandomHorizontalFlip object at 0x7f62414149d0>
    <datasets.transforms.Stack object at 0x7f6241417fa0>
    <datasets.transforms.ToTorchFormatTensor object at 0x7f6241417fd0>
    <datasets.transforms.GroupNormalize object at 0x7f6241414880>
),
  Masked position generator = None,
)
Sampler_train = <torch.utils.data.distributed.DistributedSampler object at 0x7f6241417dc0>
Model = VisionMamba(
  (patch_embed): PatchEmbed(
    (proj): Conv3d(3, 576, kernel_size=(1, 16, 16), stride=(1, 16, 16))
  )
  (drop_path): DropPath()
  (layers): ModuleList(
    (0): Block(
      (mixer): Mamba(
        (in_proj): Linear(in_features=576, out_features=2304, bias=False)
        (conv1d): Conv1d(1152, 1152, kernel_size=(4,), stride=(1,), padding=(3,), groups=1152)
        (act): SiLU()
        (x_proj): Linear(in_features=1152, out_features=68, bias=False)
        (dt_proj): Linear(in_features=36, out_features=1152, bias=True)
        (conv1d_b): Conv1d(1152, 1152, kernel_size=(4,), stride=(1,), padding=(3,), groups=1152)
        (x_proj_b): Linear(in_features=1152, out_features=68, bias=False)
        (dt_proj_b): Linear(in_features=36, out_features=1152, bias=True)
        (out_proj): Linear(in_features=1152, out_features=576, bias=False)
      )
      (norm): RMSNorm()
      (drop_path): Identity()
    )
    (1): Block(
      (mixer): Mamba(
        (in_proj): Linear(in_features=576, out_features=2304, bias=False)
        (conv1d): Conv1d(1152, 1152, kernel_size=(4,), stride=(1,), padding=(3,), groups=1152)
        (act): SiLU()
        (x_proj): Linear(in_features=1152, out_features=68, bias=False)
        (dt_proj): Linear(in_features=36, out_features=1152, bias=True)
        (conv1d_b): Conv1d(1152, 1152, kernel_size=(4,), stride=(1,), padding=(3,), groups=1152)
        (x_proj_b): Linear(in_features=1152, out_features=68, bias=False)
        (dt_proj_b): Linear(in_features=36, out_features=1152, bias=True)
        (out_proj): Linear(in_features=1152, out_features=576, bias=False)
      )
      (norm): RMSNorm()
      (drop_path): Identity()
    )
    (2): Block(
      (mixer): Mamba(
        (in_proj): Linear(in_features=576, out_features=2304, bias=False)
        (conv1d): Conv1d(1152, 1152, kernel_size=(4,), stride=(1,), padding=(3,), groups=1152)
        (act): SiLU()
        (x_proj): Linear(in_features=1152, out_features=68, bias=False)
        (dt_proj): Linear(in_features=36, out_features=1152, bias=True)
        (conv1d_b): Conv1d(1152, 1152, kernel_size=(4,), stride=(1,), padding=(3,), groups=1152)
        (x_proj_b): Linear(in_features=1152, out_features=68, bias=False)
        (dt_proj_b): Linear(in_features=36, out_features=1152, bias=True)
        (out_proj): Linear(in_features=1152, out_features=576, bias=False)
      )
      (norm): RMSNorm()
      (drop_path): DropPath()
    )
    (3): Block(
      (mixer): Mamba(
        (in_proj): Linear(in_features=576, out_features=2304, bias=False)
        (conv1d): Conv1d(1152, 1152, kernel_size=(4,), stride=(1,), padding=(3,), groups=1152)
        (act): SiLU()
        (x_proj): Linear(in_features=1152, out_features=68, bias=False)
        (dt_proj): Linear(in_features=36, out_features=1152, bias=True)
        (conv1d_b): Conv1d(1152, 1152, kernel_size=(4,), stride=(1,), padding=(3,), groups=1152)
        (x_proj_b): Linear(in_features=1152, out_features=68, bias=False)
        (dt_proj_b): Linear(in_features=36, out_features=1152, bias=True)
        (out_proj): Linear(in_features=1152, out_features=576, bias=False)
      )
      (norm): RMSNorm()
      (drop_path): DropPath()
    )
    (4): Block(
      (mixer): Mamba(
        (in_proj): Linear(in_features=576, out_features=2304, bias=False)
        (conv1d): Conv1d(1152, 1152, kernel_size=(4,), stride=(1,), padding=(3,), groups=1152)
        (act): SiLU()
        (x_proj): Linear(in_features=1152, out_features=68, bias=False)
        (dt_proj): Linear(in_features=36, out_features=1152, bias=True)
        (conv1d_b): Conv1d(1152, 1152, kernel_size=(4,), stride=(1,), padding=(3,), groups=1152)
        (x_proj_b): Linear(in_features=1152, out_features=68, bias=False)
        (dt_proj_b): Linear(in_features=36, out_features=1152, bias=True)
        (out_proj): Linear(in_features=1152, out_features=576, bias=False)
      )
      (norm): RMSNorm()
      (drop_path): DropPath()
    )
    (5): Block(
      (mixer): Mamba(
        (in_proj): Linear(in_features=576, out_features=2304, bias=False)
        (conv1d): Conv1d(1152, 1152, kernel_size=(4,), stride=(1,), padding=(3,), groups=1152)
        (act): SiLU()
        (x_proj): Linear(in_features=1152, out_features=68, bias=False)
        (dt_proj): Linear(in_features=36, out_features=1152, bias=True)
        (conv1d_b): Conv1d(1152, 1152, kernel_size=(4,), stride=(1,), padding=(3,), groups=1152)
        (x_proj_b): Linear(in_features=1152, out_features=68, bias=False)
        (dt_proj_b): Linear(in_features=36, out_features=1152, bias=True)
        (out_proj): Linear(in_features=1152, out_features=576, bias=False)
      )
      (norm): RMSNorm()
      (drop_path): DropPath()
    )
    (6): Block(
      (mixer): Mamba(
        (in_proj): Linear(in_features=576, out_features=2304, bias=False)
        (conv1d): Conv1d(1152, 1152, kernel_size=(4,), stride=(1,), padding=(3,), groups=1152)
        (act): SiLU()
        (x_proj): Linear(in_features=1152, out_features=68, bias=False)
        (dt_proj): Linear(in_features=36, out_features=1152, bias=True)
        (conv1d_b): Conv1d(1152, 1152, kernel_size=(4,), stride=(1,), padding=(3,), groups=1152)
        (x_proj_b): Linear(in_features=1152, out_features=68, bias=False)
        (dt_proj_b): Linear(in_features=36, out_features=1152, bias=True)
        (out_proj): Linear(in_features=1152, out_features=576, bias=False)
      )
      (norm): RMSNorm()
      (drop_path): DropPath()
    )
    (7): Block(
      (mixer): Mamba(
        (in_proj): Linear(in_features=576, out_features=2304, bias=False)
        (conv1d): Conv1d(1152, 1152, kernel_size=(4,), stride=(1,), padding=(3,), groups=1152)
        (act): SiLU()
        (x_proj): Linear(in_features=1152, out_features=68, bias=False)
        (dt_proj): Linear(in_features=36, out_features=1152, bias=True)
        (conv1d_b): Conv1d(1152, 1152, kernel_size=(4,), stride=(1,), padding=(3,), groups=1152)
        (x_proj_b): Linear(in_features=1152, out_features=68, bias=False)
        (dt_proj_b): Linear(in_features=36, out_features=1152, bias=True)
        (out_proj): Linear(in_features=1152, out_features=576, bias=False)
      )
      (norm): RMSNorm()
      (drop_path): DropPath()
    )
    (8): Block(
      (mixer): Mamba(
        (in_proj): Linear(in_features=576, out_features=2304, bias=False)
        (conv1d): Conv1d(1152, 1152, kernel_size=(4,), stride=(1,), padding=(3,), groups=1152)
        (act): SiLU()
        (x_proj): Linear(in_features=1152, out_features=68, bias=False)
        (dt_proj): Linear(in_features=36, out_features=1152, bias=True)
        (conv1d_b): Conv1d(1152, 1152, kernel_size=(4,), stride=(1,), padding=(3,), groups=1152)
        (x_proj_b): Linear(in_features=1152, out_features=68, bias=False)
        (dt_proj_b): Linear(in_features=36, out_features=1152, bias=True)
        (out_proj): Linear(in_features=1152, out_features=576, bias=False)
      )
      (norm): RMSNorm()
      (drop_path): DropPath()
    )
    (9): Block(
      (mixer): Mamba(
        (in_proj): Linear(in_features=576, out_features=2304, bias=False)
        (conv1d): Conv1d(1152, 1152, kernel_size=(4,), stride=(1,), padding=(3,), groups=1152)
        (act): SiLU()
        (x_proj): Linear(in_features=1152, out_features=68, bias=False)
        (dt_proj): Linear(in_features=36, out_features=1152, bias=True)
        (conv1d_b): Conv1d(1152, 1152, kernel_size=(4,), stride=(1,), padding=(3,), groups=1152)
        (x_proj_b): Linear(in_features=1152, out_features=68, bias=False)
        (dt_proj_b): Linear(in_features=36, out_features=1152, bias=True)
        (out_proj): Linear(in_features=1152, out_features=576, bias=False)
      )
      (norm): RMSNorm()
      (drop_path): DropPath()
    )
    (10): Block(
      (mixer): Mamba(
        (in_proj): Linear(in_features=576, out_features=2304, bias=False)
        (conv1d): Conv1d(1152, 1152, kernel_size=(4,), stride=(1,), padding=(3,), groups=1152)
        (act): SiLU()
        (x_proj): Linear(in_features=1152, out_features=68, bias=False)
        (dt_proj): Linear(in_features=36, out_features=1152, bias=True)
        (conv1d_b): Conv1d(1152, 1152, kernel_size=(4,), stride=(1,), padding=(3,), groups=1152)
        (x_proj_b): Linear(in_features=1152, out_features=68, bias=False)
        (dt_proj_b): Linear(in_features=36, out_features=1152, bias=True)
        (out_proj): Linear(in_features=1152, out_features=576, bias=False)
      )
      (norm): RMSNorm()
      (drop_path): DropPath()
    )
    (11): Block(
      (mixer): Mamba(
        (in_proj): Linear(in_features=576, out_features=2304, bias=False)
        (conv1d): Conv1d(1152, 1152, kernel_size=(4,), stride=(1,), padding=(3,), groups=1152)
        (act): SiLU()
        (x_proj): Linear(in_features=1152, out_features=68, bias=False)
        (dt_proj): Linear(in_features=36, out_features=1152, bias=True)
        (conv1d_b): Conv1d(1152, 1152, kernel_size=(4,), stride=(1,), padding=(3,), groups=1152)
        (x_proj_b): Linear(in_features=1152, out_features=68, bias=False)
        (dt_proj_b): Linear(in_features=36, out_features=1152, bias=True)
        (out_proj): Linear(in_features=1152, out_features=576, bias=False)
      )
      (norm): RMSNorm()
      (drop_path): DropPath()
    )
    (12): Block(
      (mixer): Mamba(
        (in_proj): Linear(in_features=576, out_features=2304, bias=False)
        (conv1d): Conv1d(1152, 1152, kernel_size=(4,), stride=(1,), padding=(3,), groups=1152)
        (act): SiLU()
        (x_proj): Linear(in_features=1152, out_features=68, bias=False)
        (dt_proj): Linear(in_features=36, out_features=1152, bias=True)
        (conv1d_b): Conv1d(1152, 1152, kernel_size=(4,), stride=(1,), padding=(3,), groups=1152)
        (x_proj_b): Linear(in_features=1152, out_features=68, bias=False)
        (dt_proj_b): Linear(in_features=36, out_features=1152, bias=True)
        (out_proj): Linear(in_features=1152, out_features=576, bias=False)
      )
      (norm): RMSNorm()
      (drop_path): DropPath()
    )
    (13): Block(
      (mixer): Mamba(
        (in_proj): Linear(in_features=576, out_features=2304, bias=False)
        (conv1d): Conv1d(1152, 1152, kernel_size=(4,), stride=(1,), padding=(3,), groups=1152)
        (act): SiLU()
        (x_proj): Linear(in_features=1152, out_features=68, bias=False)
        (dt_proj): Linear(in_features=36, out_features=1152, bias=True)
        (conv1d_b): Conv1d(1152, 1152, kernel_size=(4,), stride=(1,), padding=(3,), groups=1152)
        (x_proj_b): Linear(in_features=1152, out_features=68, bias=False)
        (dt_proj_b): Linear(in_features=36, out_features=1152, bias=True)
        (out_proj): Linear(in_features=1152, out_features=576, bias=False)
      )
      (norm): RMSNorm()
      (drop_path): DropPath()
    )
    (14): Block(
      (mixer): Mamba(
        (in_proj): Linear(in_features=576, out_features=2304, bias=False)
        (conv1d): Conv1d(1152, 1152, kernel_size=(4,), stride=(1,), padding=(3,), groups=1152)
        (act): SiLU()
        (x_proj): Linear(in_features=1152, out_features=68, bias=False)
        (dt_proj): Linear(in_features=36, out_features=1152, bias=True)
        (conv1d_b): Conv1d(1152, 1152, kernel_size=(4,), stride=(1,), padding=(3,), groups=1152)
        (x_proj_b): Linear(in_features=1152, out_features=68, bias=False)
        (dt_proj_b): Linear(in_features=36, out_features=1152, bias=True)
        (out_proj): Linear(in_features=1152, out_features=576, bias=False)
      )
      (norm): RMSNorm()
      (drop_path): DropPath()
    )
    (15): Block(
      (mixer): Mamba(
        (in_proj): Linear(in_features=576, out_features=2304, bias=False)
        (conv1d): Conv1d(1152, 1152, kernel_size=(4,), stride=(1,), padding=(3,), groups=1152)
        (act): SiLU()
        (x_proj): Linear(in_features=1152, out_features=68, bias=False)
        (dt_proj): Linear(in_features=36, out_features=1152, bias=True)
        (conv1d_b): Conv1d(1152, 1152, kernel_size=(4,), stride=(1,), padding=(3,), groups=1152)
        (x_proj_b): Linear(in_features=1152, out_features=68, bias=False)
        (dt_proj_b): Linear(in_features=36, out_features=1152, bias=True)
        (out_proj): Linear(in_features=1152, out_features=576, bias=False)
      )
      (norm): RMSNorm()
      (drop_path): DropPath()
    )
    (16): Block(
      (mixer): Mamba(
        (in_proj): Linear(in_features=576, out_features=2304, bias=False)
        (conv1d): Conv1d(1152, 1152, kernel_size=(4,), stride=(1,), padding=(3,), groups=1152)
        (act): SiLU()
        (x_proj): Linear(in_features=1152, out_features=68, bias=False)
        (dt_proj): Linear(in_features=36, out_features=1152, bias=True)
        (conv1d_b): Conv1d(1152, 1152, kernel_size=(4,), stride=(1,), padding=(3,), groups=1152)
        (x_proj_b): Linear(in_features=1152, out_features=68, bias=False)
        (dt_proj_b): Linear(in_features=36, out_features=1152, bias=True)
        (out_proj): Linear(in_features=1152, out_features=576, bias=False)
      )
      (norm): RMSNorm()
      (drop_path): DropPath()
    )
    (17): Block(
      (mixer): Mamba(
        (in_proj): Linear(in_features=576, out_features=2304, bias=False)
        (conv1d): Conv1d(1152, 1152, kernel_size=(4,), stride=(1,), padding=(3,), groups=1152)
        (act): SiLU()
        (x_proj): Linear(in_features=1152, out_features=68, bias=False)
        (dt_proj): Linear(in_features=36, out_features=1152, bias=True)
        (conv1d_b): Conv1d(1152, 1152, kernel_size=(4,), stride=(1,), padding=(3,), groups=1152)
        (x_proj_b): Linear(in_features=1152, out_features=68, bias=False)
        (dt_proj_b): Linear(in_features=36, out_features=1152, bias=True)
        (out_proj): Linear(in_features=1152, out_features=576, bias=False)
      )
      (norm): RMSNorm()
      (drop_path): DropPath()
    )
    (18): Block(
      (mixer): Mamba(
        (in_proj): Linear(in_features=576, out_features=2304, bias=False)
        (conv1d): Conv1d(1152, 1152, kernel_size=(4,), stride=(1,), padding=(3,), groups=1152)
        (act): SiLU()
        (x_proj): Linear(in_features=1152, out_features=68, bias=False)
        (dt_proj): Linear(in_features=36, out_features=1152, bias=True)
        (conv1d_b): Conv1d(1152, 1152, kernel_size=(4,), stride=(1,), padding=(3,), groups=1152)
        (x_proj_b): Linear(in_features=1152, out_features=68, bias=False)
        (dt_proj_b): Linear(in_features=36, out_features=1152, bias=True)
        (out_proj): Linear(in_features=1152, out_features=576, bias=False)
      )
      (norm): RMSNorm()
      (drop_path): DropPath()
    )
    (19): Block(
      (mixer): Mamba(
        (in_proj): Linear(in_features=576, out_features=2304, bias=False)
        (conv1d): Conv1d(1152, 1152, kernel_size=(4,), stride=(1,), padding=(3,), groups=1152)
        (act): SiLU()
        (x_proj): Linear(in_features=1152, out_features=68, bias=False)
        (dt_proj): Linear(in_features=36, out_features=1152, bias=True)
        (conv1d_b): Conv1d(1152, 1152, kernel_size=(4,), stride=(1,), padding=(3,), groups=1152)
        (x_proj_b): Linear(in_features=1152, out_features=68, bias=False)
        (dt_proj_b): Linear(in_features=36, out_features=1152, bias=True)
        (out_proj): Linear(in_features=1152, out_features=576, bias=False)
      )
      (norm): RMSNorm()
      (drop_path): DropPath()
    )
    (20): Block(
      (mixer): Mamba(
        (in_proj): Linear(in_features=576, out_features=2304, bias=False)
        (conv1d): Conv1d(1152, 1152, kernel_size=(4,), stride=(1,), padding=(3,), groups=1152)
        (act): SiLU()
        (x_proj): Linear(in_features=1152, out_features=68, bias=False)
        (dt_proj): Linear(in_features=36, out_features=1152, bias=True)
        (conv1d_b): Conv1d(1152, 1152, kernel_size=(4,), stride=(1,), padding=(3,), groups=1152)
        (x_proj_b): Linear(in_features=1152, out_features=68, bias=False)
        (dt_proj_b): Linear(in_features=36, out_features=1152, bias=True)
        (out_proj): Linear(in_features=1152, out_features=576, bias=False)
      )
      (norm): RMSNorm()
      (drop_path): DropPath()
    )
    (21): Block(
      (mixer): Mamba(
        (in_proj): Linear(in_features=576, out_features=2304, bias=False)
        (conv1d): Conv1d(1152, 1152, kernel_size=(4,), stride=(1,), padding=(3,), groups=1152)
        (act): SiLU()
        (x_proj): Linear(in_features=1152, out_features=68, bias=False)
        (dt_proj): Linear(in_features=36, out_features=1152, bias=True)
        (conv1d_b): Conv1d(1152, 1152, kernel_size=(4,), stride=(1,), padding=(3,), groups=1152)
        (x_proj_b): Linear(in_features=1152, out_features=68, bias=False)
        (dt_proj_b): Linear(in_features=36, out_features=1152, bias=True)
        (out_proj): Linear(in_features=1152, out_features=576, bias=False)
      )
      (norm): RMSNorm()
      (drop_path): DropPath()
    )
    (22): Block(
      (mixer): Mamba(
        (in_proj): Linear(in_features=576, out_features=2304, bias=False)
        (conv1d): Conv1d(1152, 1152, kernel_size=(4,), stride=(1,), padding=(3,), groups=1152)
        (act): SiLU()
        (x_proj): Linear(in_features=1152, out_features=68, bias=False)
        (dt_proj): Linear(in_features=36, out_features=1152, bias=True)
        (conv1d_b): Conv1d(1152, 1152, kernel_size=(4,), stride=(1,), padding=(3,), groups=1152)
        (x_proj_b): Linear(in_features=1152, out_features=68, bias=False)
        (dt_proj_b): Linear(in_features=36, out_features=1152, bias=True)
        (out_proj): Linear(in_features=1152, out_features=576, bias=False)
      )
      (norm): RMSNorm()
      (drop_path): DropPath()
    )
    (23): Block(
      (mixer): Mamba(
        (in_proj): Linear(in_features=576, out_features=2304, bias=False)
        (conv1d): Conv1d(1152, 1152, kernel_size=(4,), stride=(1,), padding=(3,), groups=1152)
        (act): SiLU()
        (x_proj): Linear(in_features=1152, out_features=68, bias=False)
        (dt_proj): Linear(in_features=36, out_features=1152, bias=True)
        (conv1d_b): Conv1d(1152, 1152, kernel_size=(4,), stride=(1,), padding=(3,), groups=1152)
        (x_proj_b): Linear(in_features=1152, out_features=68, bias=False)
        (dt_proj_b): Linear(in_features=36, out_features=1152, bias=True)
        (out_proj): Linear(in_features=1152, out_features=576, bias=False)
      )
      (norm): RMSNorm()
      (drop_path): DropPath()
    )
    (24): Block(
      (mixer): Mamba(
        (in_proj): Linear(in_features=576, out_features=2304, bias=False)
        (conv1d): Conv1d(1152, 1152, kernel_size=(4,), stride=(1,), padding=(3,), groups=1152)
        (act): SiLU()
        (x_proj): Linear(in_features=1152, out_features=68, bias=False)
        (dt_proj): Linear(in_features=36, out_features=1152, bias=True)
        (conv1d_b): Conv1d(1152, 1152, kernel_size=(4,), stride=(1,), padding=(3,), groups=1152)
        (x_proj_b): Linear(in_features=1152, out_features=68, bias=False)
        (dt_proj_b): Linear(in_features=36, out_features=1152, bias=True)
        (out_proj): Linear(in_features=1152, out_features=576, bias=False)
      )
      (norm): RMSNorm()
      (drop_path): DropPath()
    )
    (25): Block(
      (mixer): Mamba(
        (in_proj): Linear(in_features=576, out_features=2304, bias=False)
        (conv1d): Conv1d(1152, 1152, kernel_size=(4,), stride=(1,), padding=(3,), groups=1152)
        (act): SiLU()
        (x_proj): Linear(in_features=1152, out_features=68, bias=False)
        (dt_proj): Linear(in_features=36, out_features=1152, bias=True)
        (conv1d_b): Conv1d(1152, 1152, kernel_size=(4,), stride=(1,), padding=(3,), groups=1152)
        (x_proj_b): Linear(in_features=1152, out_features=68, bias=False)
        (dt_proj_b): Linear(in_features=36, out_features=1152, bias=True)
        (out_proj): Linear(in_features=1152, out_features=576, bias=False)
      )
      (norm): RMSNorm()
      (drop_path): DropPath()
    )
    (26): Block(
      (mixer): Mamba(
        (in_proj): Linear(in_features=576, out_features=2304, bias=False)
        (conv1d): Conv1d(1152, 1152, kernel_size=(4,), stride=(1,), padding=(3,), groups=1152)
        (act): SiLU()
        (x_proj): Linear(in_features=1152, out_features=68, bias=False)
        (dt_proj): Linear(in_features=36, out_features=1152, bias=True)
        (conv1d_b): Conv1d(1152, 1152, kernel_size=(4,), stride=(1,), padding=(3,), groups=1152)
        (x_proj_b): Linear(in_features=1152, out_features=68, bias=False)
        (dt_proj_b): Linear(in_features=36, out_features=1152, bias=True)
        (out_proj): Linear(in_features=1152, out_features=576, bias=False)
      )
      (norm): RMSNorm()
      (drop_path): DropPath()
    )
    (27): Block(
      (mixer): Mamba(
        (in_proj): Linear(in_features=576, out_features=2304, bias=False)
        (conv1d): Conv1d(1152, 1152, kernel_size=(4,), stride=(1,), padding=(3,), groups=1152)
        (act): SiLU()
        (x_proj): Linear(in_features=1152, out_features=68, bias=False)
        (dt_proj): Linear(in_features=36, out_features=1152, bias=True)
        (conv1d_b): Conv1d(1152, 1152, kernel_size=(4,), stride=(1,), padding=(3,), groups=1152)
        (x_proj_b): Linear(in_features=1152, out_features=68, bias=False)
        (dt_proj_b): Linear(in_features=36, out_features=1152, bias=True)
        (out_proj): Linear(in_features=1152, out_features=576, bias=False)
      )
      (norm): RMSNorm()
      (drop_path): DropPath()
    )
    (28): Block(
      (mixer): Mamba(
        (in_proj): Linear(in_features=576, out_features=2304, bias=False)
        (conv1d): Conv1d(1152, 1152, kernel_size=(4,), stride=(1,), padding=(3,), groups=1152)
        (act): SiLU()
        (x_proj): Linear(in_features=1152, out_features=68, bias=False)
        (dt_proj): Linear(in_features=36, out_features=1152, bias=True)
        (conv1d_b): Conv1d(1152, 1152, kernel_size=(4,), stride=(1,), padding=(3,), groups=1152)
        (x_proj_b): Linear(in_features=1152, out_features=68, bias=False)
        (dt_proj_b): Linear(in_features=36, out_features=1152, bias=True)
        (out_proj): Linear(in_features=1152, out_features=576, bias=False)
      )
      (norm): RMSNorm()
      (drop_path): DropPath()
    )
    (29): Block(
      (mixer): Mamba(
        (in_proj): Linear(in_features=576, out_features=2304, bias=False)
        (conv1d): Conv1d(1152, 1152, kernel_size=(4,), stride=(1,), padding=(3,), groups=1152)
        (act): SiLU()
        (x_proj): Linear(in_features=1152, out_features=68, bias=False)
        (dt_proj): Linear(in_features=36, out_features=1152, bias=True)
        (conv1d_b): Conv1d(1152, 1152, kernel_size=(4,), stride=(1,), padding=(3,), groups=1152)
        (x_proj_b): Linear(in_features=1152, out_features=68, bias=False)
        (dt_proj_b): Linear(in_features=36, out_features=1152, bias=True)
        (out_proj): Linear(in_features=1152, out_features=576, bias=False)
      )
      (norm): RMSNorm()
      (drop_path): DropPath()
    )
    (30): Block(
      (mixer): Mamba(
        (in_proj): Linear(in_features=576, out_features=2304, bias=False)
        (conv1d): Conv1d(1152, 1152, kernel_size=(4,), stride=(1,), padding=(3,), groups=1152)
        (act): SiLU()
        (x_proj): Linear(in_features=1152, out_features=68, bias=False)
        (dt_proj): Linear(in_features=36, out_features=1152, bias=True)
        (conv1d_b): Conv1d(1152, 1152, kernel_size=(4,), stride=(1,), padding=(3,), groups=1152)
        (x_proj_b): Linear(in_features=1152, out_features=68, bias=False)
        (dt_proj_b): Linear(in_features=36, out_features=1152, bias=True)
        (out_proj): Linear(in_features=1152, out_features=576, bias=False)
      )
      (norm): RMSNorm()
      (drop_path): DropPath()
    )
    (31): Block(
      (mixer): Mamba(
        (in_proj): Linear(in_features=576, out_features=2304, bias=False)
        (conv1d): Conv1d(1152, 1152, kernel_size=(4,), stride=(1,), padding=(3,), groups=1152)
        (act): SiLU()
        (x_proj): Linear(in_features=1152, out_features=68, bias=False)
        (dt_proj): Linear(in_features=36, out_features=1152, bias=True)
        (conv1d_b): Conv1d(1152, 1152, kernel_size=(4,), stride=(1,), padding=(3,), groups=1152)
        (x_proj_b): Linear(in_features=1152, out_features=68, bias=False)
        (dt_proj_b): Linear(in_features=36, out_features=1152, bias=True)
        (out_proj): Linear(in_features=1152, out_features=576, bias=False)
      )
      (norm): RMSNorm()
      (drop_path): DropPath()
    )
  )
  (norm): RMSNorm()
  (clip_decoder): ModuleList(
    (0): Linear_Decoder(
      (head): Linear(in_features=576, out_features=512, bias=True)
      (norm): LayerNorm((512,), eps=1e-05, elementwise_affine=True)
    )
  )
)
number of params: 73.941504 M
LR = 0.00003750
Batch size = 64
Repeated sample = 1
Number of training steps = 3756
Number of training examples per epoch = 240384
Param groups = {
  "no_decay": {
    "weight_decay": 0.0,
    "params": [
      "cls_token",
      "pos_embed",
      "temporal_pos_embedding",
      "patch_embed.proj.bias",
      "layers.0.mixer.D",
…
